horizon_flip_prob: 0.5
vertical_flip_prob: None
h_translation_prob: None
v_translation_prob: None
max_translation: None
rotation_prob: None
---
horizon_flip_prob: None
vertical_flip_prob: None
h_translation_prob: None
v_translation_prob: None
max_translation: None
rotation_prob: None
---
27780 1290
number of parameters: 8.931714e+07
GPT(
  (tok_emb): Linear(in_features=528, out_features=768, bias=True)
  (drop): Dropout(p=0.1, inplace=False)
  (blocks): Sequential(
    (0): Block(
      (ln1): LayerNorm((768,), eps=1e-05, elementwise_affine=True)
      (ln2): LayerNorm((768,), eps=1e-05, elementwise_affine=True)
      (attn): CausalSelfAttention(
        (key): Linear(in_features=768, out_features=768, bias=True)
        (query): Linear(in_features=768, out_features=768, bias=True)
        (value): Linear(in_features=768, out_features=768, bias=True)
        (attn_drop): Dropout(p=0.1, inplace=False)
        (resid_drop): Dropout(p=0.1, inplace=False)
        (proj): Linear(in_features=768, out_features=768, bias=True)
      )
      (mlp): Sequential(
        (0): Linear(in_features=768, out_features=3072, bias=True)
        (1): GELU()
        (2): Linear(in_features=3072, out_features=768, bias=True)
        (3): Dropout(p=0.1, inplace=False)
      )
    )
    (1): Block(
      (ln1): LayerNorm((768,), eps=1e-05, elementwise_affine=True)
      (ln2): LayerNorm((768,), eps=1e-05, elementwise_affine=True)
      (attn): CausalSelfAttention(
        (key): Linear(in_features=768, out_features=768, bias=True)
        (query): Linear(in_features=768, out_features=768, bias=True)
        (value): Linear(in_features=768, out_features=768, bias=True)
        (attn_drop): Dropout(p=0.1, inplace=False)
        (resid_drop): Dropout(p=0.1, inplace=False)
        (proj): Linear(in_features=768, out_features=768, bias=True)
      )
      (mlp): Sequential(
        (0): Linear(in_features=768, out_features=3072, bias=True)
        (1): GELU()
        (2): Linear(in_features=3072, out_features=768, bias=True)
        (3): Dropout(p=0.1, inplace=False)
      )
    )
    (2): Block(
      (ln1): LayerNorm((768,), eps=1e-05, elementwise_affine=True)
      (ln2): LayerNorm((768,), eps=1e-05, elementwise_affine=True)
      (attn): CausalSelfAttention(
        (key): Linear(in_features=768, out_features=768, bias=True)
        (query): Linear(in_features=768, out_features=768, bias=True)
        (value): Linear(in_features=768, out_features=768, bias=True)
        (attn_drop): Dropout(p=0.1, inplace=False)
        (resid_drop): Dropout(p=0.1, inplace=False)
        (proj): Linear(in_features=768, out_features=768, bias=True)
      )
      (mlp): Sequential(
        (0): Linear(in_features=768, out_features=3072, bias=True)
        (1): GELU()
        (2): Linear(in_features=3072, out_features=768, bias=True)
        (3): Dropout(p=0.1, inplace=False)
      )
    )
    (3): Block(
      (ln1): LayerNorm((768,), eps=1e-05, elementwise_affine=True)
      (ln2): LayerNorm((768,), eps=1e-05, elementwise_affine=True)
      (attn): CausalSelfAttention(
        (key): Linear(in_features=768, out_features=768, bias=True)
        (query): Linear(in_features=768, out_features=768, bias=True)
        (value): Linear(in_features=768, out_features=768, bias=True)
        (attn_drop): Dropout(p=0.1, inplace=False)
        (resid_drop): Dropout(p=0.1, inplace=False)
        (proj): Linear(in_features=768, out_features=768, bias=True)
      )
      (mlp): Sequential(
        (0): Linear(in_features=768, out_features=3072, bias=True)
        (1): GELU()
        (2): Linear(in_features=3072, out_features=768, bias=True)
        (3): Dropout(p=0.1, inplace=False)
      )
    )
    (4): Block(
      (ln1): LayerNorm((768,), eps=1e-05, elementwise_affine=True)
      (ln2): LayerNorm((768,), eps=1e-05, elementwise_affine=True)
      (attn): CausalSelfAttention(
        (key): Linear(in_features=768, out_features=768, bias=True)
        (query): Linear(in_features=768, out_features=768, bias=True)
        (value): Linear(in_features=768, out_features=768, bias=True)
        (attn_drop): Dropout(p=0.1, inplace=False)
        (resid_drop): Dropout(p=0.1, inplace=False)
        (proj): Linear(in_features=768, out_features=768, bias=True)
      )
      (mlp): Sequential(
        (0): Linear(in_features=768, out_features=3072, bias=True)
        (1): GELU()
        (2): Linear(in_features=3072, out_features=768, bias=True)
        (3): Dropout(p=0.1, inplace=False)
      )
    )
    (5): Block(
      (ln1): LayerNorm((768,), eps=1e-05, elementwise_affine=True)
      (ln2): LayerNorm((768,), eps=1e-05, elementwise_affine=True)
      (attn): CausalSelfAttention(
        (key): Linear(in_features=768, out_features=768, bias=True)
        (query): Linear(in_features=768, out_features=768, bias=True)
        (value): Linear(in_features=768, out_features=768, bias=True)
        (attn_drop): Dropout(p=0.1, inplace=False)
        (resid_drop): Dropout(p=0.1, inplace=False)
        (proj): Linear(in_features=768, out_features=768, bias=True)
      )
      (mlp): Sequential(
        (0): Linear(in_features=768, out_features=3072, bias=True)
        (1): GELU()
        (2): Linear(in_features=3072, out_features=768, bias=True)
        (3): Dropout(p=0.1, inplace=False)
      )
    )
    (6): Block(
      (ln1): LayerNorm((768,), eps=1e-05, elementwise_affine=True)
      (ln2): LayerNorm((768,), eps=1e-05, elementwise_affine=True)
      (attn): CausalSelfAttention(
        (key): Linear(in_features=768, out_features=768, bias=True)
        (query): Linear(in_features=768, out_features=768, bias=True)
        (value): Linear(in_features=768, out_features=768, bias=True)
        (attn_drop): Dropout(p=0.1, inplace=False)
        (resid_drop): Dropout(p=0.1, inplace=False)
        (proj): Linear(in_features=768, out_features=768, bias=True)
      )
      (mlp): Sequential(
        (0): Linear(in_features=768, out_features=3072, bias=True)
        (1): GELU()
        (2): Linear(in_features=3072, out_features=768, bias=True)
        (3): Dropout(p=0.1, inplace=False)
      )
    )
    (7): Block(
      (ln1): LayerNorm((768,), eps=1e-05, elementwise_affine=True)
      (ln2): LayerNorm((768,), eps=1e-05, elementwise_affine=True)
      (attn): CausalSelfAttention(
        (key): Linear(in_features=768, out_features=768, bias=True)
        (query): Linear(in_features=768, out_features=768, bias=True)
        (value): Linear(in_features=768, out_features=768, bias=True)
        (attn_drop): Dropout(p=0.1, inplace=False)
        (resid_drop): Dropout(p=0.1, inplace=False)
        (proj): Linear(in_features=768, out_features=768, bias=True)
      )
      (mlp): Sequential(
        (0): Linear(in_features=768, out_features=3072, bias=True)
        (1): GELU()
        (2): Linear(in_features=3072, out_features=768, bias=True)
        (3): Dropout(p=0.1, inplace=False)
      )
    )
    (8): Block(
      (ln1): LayerNorm((768,), eps=1e-05, elementwise_affine=True)
      (ln2): LayerNorm((768,), eps=1e-05, elementwise_affine=True)
      (attn): CausalSelfAttention(
        (key): Linear(in_features=768, out_features=768, bias=True)
        (query): Linear(in_features=768, out_features=768, bias=True)
        (value): Linear(in_features=768, out_features=768, bias=True)
        (attn_drop): Dropout(p=0.1, inplace=False)
        (resid_drop): Dropout(p=0.1, inplace=False)
        (proj): Linear(in_features=768, out_features=768, bias=True)
      )
      (mlp): Sequential(
        (0): Linear(in_features=768, out_features=3072, bias=True)
        (1): GELU()
        (2): Linear(in_features=3072, out_features=768, bias=True)
        (3): Dropout(p=0.1, inplace=False)
      )
    )
    (9): Block(
      (ln1): LayerNorm((768,), eps=1e-05, elementwise_affine=True)
      (ln2): LayerNorm((768,), eps=1e-05, elementwise_affine=True)
      (attn): CausalSelfAttention(
        (key): Linear(in_features=768, out_features=768, bias=True)
        (query): Linear(in_features=768, out_features=768, bias=True)
        (value): Linear(in_features=768, out_features=768, bias=True)
        (attn_drop): Dropout(p=0.1, inplace=False)
        (resid_drop): Dropout(p=0.1, inplace=False)
        (proj): Linear(in_features=768, out_features=768, bias=True)
      )
      (mlp): Sequential(
        (0): Linear(in_features=768, out_features=3072, bias=True)
        (1): GELU()
        (2): Linear(in_features=3072, out_features=768, bias=True)
        (3): Dropout(p=0.1, inplace=False)
      )
    )
    (10): Block(
      (ln1): LayerNorm((768,), eps=1e-05, elementwise_affine=True)
      (ln2): LayerNorm((768,), eps=1e-05, elementwise_affine=True)
      (attn): CausalSelfAttention(
        (key): Linear(in_features=768, out_features=768, bias=True)
        (query): Linear(in_features=768, out_features=768, bias=True)
        (value): Linear(in_features=768, out_features=768, bias=True)
        (attn_drop): Dropout(p=0.1, inplace=False)
        (resid_drop): Dropout(p=0.1, inplace=False)
        (proj): Linear(in_features=768, out_features=768, bias=True)
      )
      (mlp): Sequential(
        (0): Linear(in_features=768, out_features=3072, bias=True)
        (1): GELU()
        (2): Linear(in_features=3072, out_features=768, bias=True)
        (3): Dropout(p=0.1, inplace=False)
      )
    )
    (11): Block(
      (ln1): LayerNorm((768,), eps=1e-05, elementwise_affine=True)
      (ln2): LayerNorm((768,), eps=1e-05, elementwise_affine=True)
      (attn): CausalSelfAttention(
        (key): Linear(in_features=768, out_features=768, bias=True)
        (query): Linear(in_features=768, out_features=768, bias=True)
        (value): Linear(in_features=768, out_features=768, bias=True)
        (attn_drop): Dropout(p=0.1, inplace=False)
        (resid_drop): Dropout(p=0.1, inplace=False)
        (proj): Linear(in_features=768, out_features=768, bias=True)
      )
      (mlp): Sequential(
        (0): Linear(in_features=768, out_features=3072, bias=True)
        (1): GELU()
        (2): Linear(in_features=3072, out_features=768, bias=True)
        (3): Dropout(p=0.1, inplace=False)
      )
    )
  )
  (ln_f): LayerNorm((768,), eps=1e-05, elementwise_affine=True)
  (proj): Linear(in_features=768, out_features=256, bias=True)
  (decoder): Sequential(
    (0): Linear(in_features=256, out_features=256, bias=True)
    (1): Tanh()
    (2): LayerNorm((256,), eps=1e-05, elementwise_affine=True)
    (3): Linear(in_features=256, out_features=528, bias=True)
  )
)
2022-04-11, 10:22:30, start evaluation
2022-04-11, 10:22:30, seed: 0
2022-04-11, 10:22:30, subtask: 0
lr: 1.000000e-06, metric: 0.08624, best_metric: 0.08624
lr: 1.000000e-05, metric: 0.08624, best_metric: 0.08624
lr: 1.000000e-04, metric: 0.08611, best_metric: 0.08624
lr: 1.000000e-03, metric: 0.08527, best_metric: 0.08624
lr: 1.000000e-02, metric: 0.07260, best_metric: 0.08624
…
